pygame_env/model/model.pth (torch, 16787 bytes, 4 tensors)

linear1.weight f4 [256, 11]
-0.06951342 0.16365519 -0.0011162806 -0.0011090576 0.2103153 0.1717194 0.042639848 0.12529051
0.22492443 0.1267392 0.0023752498 -0.04413978 0.23082633 -0.22544119 0.05504293 -0.16560234
0.07296512 0.06427294 0.17809571 0.13584696 -0.18629879 -0.044019204 0.039623395 -0.2145129
0.08122745 -0.21115871 -0.24853358 -0.300382 0.0040308856 0.2557014 0.13645987 -0.26395693
-0.079817474 -0.091575615 0.16616204 0.027768075 -0.27113485 -0.039908614 -0.17094499 -0.2901918
-0.07217397 -0.28470787 -0.1580044 -0.07643508 0.12856188 -0.05000311 -0.119097546 -0.24854818
-0.025422849 0.08746001 -0.09027926 -0.24764192 0.2602238 -0.24645379 -0.13493504 0.21053743
0.011621552 0.20631576 -0.15467545 -0.16492064 -0.25252527 0.12056606 0.21435966 0.008075455
-0.21157822 0.04151137 -0.19584963 -0.13681732 0.056349248 0.1290698 -0.10010396 -0.11678293
0.21814607 -0.1275849 -0.023594396 -0.122020036 0.086901516 -0.20410594 -0.15790372 -0.26655427
0.1618235 -0.14575073 -0.27897865 -0.29024506 -0.2739619 -0.062803015 0.02916339 0.2956035
-0.21354643 0.31136644 0.18066318 0.21050748 0.17372224 0.09465943 0.19587453 0.057535563
-0.1998262 0.016964484 0.24369113 0.2836585 0.023187568 -0.26426172 0.09091996 0.15775196
0.036546946 0.26058707 0.17721352 0.29278898 -0.12908989 -0.08139039 0.0190393 -0.10385519
-0.1453181 0.2770729 0.29465094 -0.23345299 -0.021529496 0.21304257 -0.20772578 0.32579228
-0.09921685 0.009935411 -0.16151379 -0.17182809 0.25626847 0.14931914 -0.29004744 0.20661622
0.114826 -0.08297158 -0.029085038 0.12014044 0.17810127 0.2388505 0.12492348 -0.20788857
-0.08286458 0.27336326 -0.0010136622 -0.20829438 -0.0545233 0.12807149 -0.074955404 0.28000352
-0.057156846 0.22991581 0.16984054 0.25189802 -0.09931423 -0.18382953 0.04298484 -0.26402205
-0.058913637 0.14774892 -0.03497711 0.087441385 -0.13932657 -0.16075814 0.03565367 -0.062436342
-0.017217312 -0.23192388 0.16455084 0.003896147 0.14294511 -0.304371 0.28718325 0.3228814
0.10746724 0.13661493 0.26104695 -0.20477028 0.0077102026 0.15590419 0.109962486 0.20473179
-0.14215952 0.10384306 0.25059068 -0.20110804 -0.023837293 -0.2872705 0.037165444 0.060361993
-0.032707155 0.29465866 0.18913597 0.12328459 0.05940619 -0.03536585 -0.07451542 0.19845901
-0.081429586 0.10118086 0.0037654063 0.11164697 -0.2811908 0.01628137 0.13785817 -0.16522191
0.17612262 -0.028281208 0.25564873 -0.21493411 -0.21736042 0.124255 0.18235879 -0.005082186
-0.23581274 -0.008989109 -0.034953456 0.09928274 -0.21256536 0.10861592 0.07258346 0.1687432
-0.28087008 0.18988122 0.26636258 0.2974963 -0.11568309 0.059375595 -0.100560114 -0.124530934
-0.11343723 0.254732 -0.28341004 -0.26328373 -0.16230795 0.21199998 -0.24913001 -0.21980974
-0.09201133 0.19615081 -0.028368056 0.13729116 0.28698215 0.20276767 -0.09663625 0.18253165
-0.21174753 -0.24037372 0.1642726 0.09286323 -0.15622745 -0.15571767 -0.086010195 0.1098612
0.25415304 0.08705682 0.09186074 -0.044785835 0.20638964 0.039140582 0.004567153 0.12765923
00000000: 0d5d 8ebd 3a95 273e 2950 92ba cc5d 91ba
00000010: e55c 573e 36d7 2f3e 1fa7 2e3d 284c 003e
00000020: 9752 663e ecc7 013e 14aa 1b3b eacb 34bd
00000030: bd5d 6c3e 0eda 66be b274 613d a993 29be
00000040: bd6e 953d 88a1 833d b95e 363e 771b 0b3e
00000050: 1cc5 3ebe 7b4d 34bd 244c 223d 45a9 5bbe
00000060: 945a a63d fd39 58be 967f 7ebe abcb 99be
00000070: 8515 843b 4beb 823e 23bc 0b3e 5d25 87be
00000080: 5877 a3bd ff8b bbbd 6226 2a3e e079 e33c
00000090: 30d2 8abe 3777 23bd 340c 2fbe 0594 94be
000000a0: f2cf 93bd 3bc5 91be e8cb 21be ff89 9cbd
000000b0: baa5 033e 10d0 4cbd 6ae9 f3bd 6a83 7ebe
000000c0: 9443 d0bc 3c1e b33d 55e4 b8bd d895 7dbe
000000d0: 0e3c 853e 625e 7cbe 692c 0abe 2097 573e
000000e0: 5268 3e3c 7044 533e 3e63 1ebe f5e0 28be
000000f0: fe4a 81be 57eb f63d 1981 5b3e ea4e 043c
00000100: f6a7 58be d407 2a3d ce8c 48be d719 0cbe
00000110: 78ce 663d e02a 043e 4e03 cdbd e42b efbd
00000120: af61 5f3e 9ea5 02be 0949 c1bc a4e5 f9bd
00000130: 6cf9 b13d 2601 51be 83b1 21be cd79 88be
00000140: 0fb5 253e ae3f 15be 4ad6 8ebe 009b 94be
00000150: bc44 8cbe de9e 80bd 10e8 ee3c 5859 973e
00000160: eaab 5abe 6c6b 9f3e c5ff 383e 468f 573e
00000170: 3ee4 313e cedc c13d 5593 483e 69aa 6b3d
00000180: 3d9f 4cbe 1af9 8a3c 2b8a 793e b03b 913e
00000190: dbf3 bd3c 504d 87be 3e34 ba3d bb89 213e
000001a0: 40b2 153d ab6b 853e 7677 353e 70e8 953e
000001b0: 2430 04be 01b0 a6bd 4ef8 9b3c 08b2 d4bd
000001c0: 45ce 14be 80dc 8d3e 7ddc 963e 4d0e 6fbe
000001d0: a05e b0bc d527 5a3e 11b6 54be 3fce a63e
000001e0: 3432 cbbd 22c8 223c df63 25be b4f3 2fbe
000001f0: 9f35 833e 1ee7 183e 1981 94be 3493 533e
00000200: e529 eb3d 01ed a9bd bf43 eebc 310c f63d
00000210: 2e60 363e 3a95 743e e2d7 ff3d bee0 54be
00000220: e8b4 a9bd 45f6 8b3e dcdc 84ba 1f4b 55be
00000230: d353 5fbd 2c25 033e 3882 99bd 9f5c 8f3e
00000240: 4c1d 6abd 0d6f 6b3e aeea 2d3e c7f8 803e
00000250: 4265 cbbd cf3d 3cbe df10 303d e62d 87be
00000260: 6d4f 71bd 7e4b 173e 2844 0fbd 7814 b33d
00000270: a0ab 0ebe c89d 24be 9509 123d 40bd 7fbd
00000280: 520b 8dbc 747d 6dbe 0480 283e 8056 7f3b
00000290: 3460 123e 84d6 9bbe af09 933e b650 a53e
000002a0: c917 dc3d c9e4 0b3e f2a7 853e 4daf 51be
000002b0: dea5 fc3b 59a5 1f3e 0334 e13d 36a5 513e
000002c0: 4492 11be acab d43d 6c4d 803e 44ef 4dbe
000002d0: 6d46 c3bc 1e15 93be cb3a 183d 233e 773d
000002e0: f0f7 05bd 80dd 963e dcac 413e a27c fc3d
000002f0: e853 733d c8db 10bd 8a9b 98bd d738 4b3e
00000300: 8ec4 a6bd e937 cf3d 09c5 763b 2ba7 e43d
00000310: 3ef8 8fbe 8260 853c b12a 0d3e ef2f 29be
00000320: 7d59 343e fead e7bc 64e4 823e b017 5cbe
00000330: bb93 5ebe 6879 fe3d 43bc 3a3e 7788 a6bb
00000340: e578 71be 0e47 13bc 5b2b 0fbd c054 cb3d
00000350: bcaa 59be 0672 de3d a3a6 943d 04cb 2c3e
00000360: 34ce 8fbe 3970 423e ad60 883e 6f51 983e
00000370: 42eb ecbd d333 733d 76f2 cdbd 130a ffbd
00000380: c751 e8bd 3c6c 823e 1f1b 91be 20cd 86be
00000390: 0e34 26be 8616 593e f01b 7fbe ce15 61be
000003a0: 7070 bcbd c2db 483e 2064 e8bc 0e96 0c3e
000003b0: 53ef 923e 54a2 4f3e 3ae9 c5bd 94e9 3a3e
000003c0: 58d4 58be 8724 76be 1437 283e 142f be3d
000003d0: 17fa 1fbe 7474 1fbe 1d26 b0bd e9fe e03d
000003e0: 5920 823e d94a b23d 7c21 bc3d 5a71 37bd
000003f0: ce57 533e e051 203d 0ea8 953b 1ab9 023e

linear1.bias f4 [256]
-0.14946422 -0.1675479 0.022599699 0.2824184 0.12814166 0.078177996 -0.0558449 0.043132715
-0.2059811 -0.17410462 0.0034361845 0.035548702 0.26199675 -0.048987146 0.16973698 0.08768934
-0.26709813 -0.12453902 0.11044325 0.17830446 0.29460624 -0.18004316 -0.18918163 -0.08235687
0.17629868 -0.12423081 -0.08223742 0.17048833 0.07576565 -0.19040538 0.012224846 0.30457196
0.013294594 -0.24251576 -0.02855224 0.083604604 0.12874423 -0.034128103 -0.014063335 0.11767315
0.27344483 -0.116205454 -0.25204837 -0.09508776 -0.041427184 0.10132083 0.2829403 -0.2721377
-0.2816292 -0.031170465 -0.1997564 0.12617148 0.066257454 -0.04668899 0.0071119526 -0.077816755
0.23262344 -0.26833338 0.18628629 0.15211558 -0.19151208 0.1399959 -0.07578719 0.25397503
-0.023451881 -0.039339866 -0.13753438 0.06327391 -0.30478016 -0.16285048 0.20426613 0.19899559
-0.078071326 0.0012603377 0.086520255 0.14828639 0.06590491 0.053531174 -0.1754233 0.20774226
0.2090962 0.15520065 0.06633253 -0.2651969 0.24772808 -0.06649798 -0.06704776 0.19453338
0.05038718 -0.07885538 -0.21827209 -0.2181271 0.055061713 0.20278451 0.05626001 -0.024105145
-0.21679021 0.11413568 -0.10657418 -0.19073236 0.16549629 0.25003365 0.03414606 0.2823465
0.03255745 0.102098286 -0.18135886 -0.101229616 0.06468186 -0.18999052 0.15059212 0.036774576
0.017507004 0.0128630325 0.2030853 0.05037861 -0.15815887 -0.17556655 0.23363683 0.032644536
0.24741635 -0.3072845 0.13173737 -0.22050747 0.2382186 -0.106432185 0.103281565 0.1565358
-0.20799534 -0.06683935 -0.1331456 0.1100696 0.05944104 -0.08909665 0.004526926 0.089924276
0.24676748 -0.21943074 0.04852619 0.24968682 -0.08577263 -0.26980084 0.08230281 -0.11428314
-0.19387722 0.2753304 0.1561394 0.22432302 0.2515364 -0.27916762 0.06467799 -0.044831876
0.2336747 -0.17876631 0.20241898 -0.05479115 -0.29676968 0.03129919 0.17208277 0.1517908
0.23701584 -0.19578207 -0.094566524 -0.18797468 0.10221986 -0.30028638 0.29132965 -0.050966382
0.24693337 -0.063211225 -0.2545346 -0.0252582 -0.06668655 -0.29325244 -0.21907227 0.24191773
-0.23463717 0.021182157 0.22323878 -0.23255856 -0.2695162 -0.099062085 0.23215528 0.10374419
0.07113441 -0.21610665 -0.16993654 -0.29227826 -0.021900311 -0.07536329 0.18301934 0.07180011
0.06098113 0.2162131 -0.091491595 0.08823753 0.26707357 -0.2786022 -0.18193977 0.045329724
0.15950933 -0.008201719 0.062336553 0.13312018 -0.2923757 -0.016453875 -0.14441787 -0.09046174
-0.043288667 -0.2841314 -0.2912499 -0.2927399 0.01156882 0.17562157 0.26940244 0.05824041
-0.10511705 -0.061657347 -0.11966422 -0.10958813 0.22215766 -0.1816144 -0.08619044 -0.054816164
-0.16020083 0.09250641 -0.2367981 0.15467998 -0.27504632 -0.14564335 0.1707551 0.011993511
-0.031462424 0.038297687 -0.17349103 -0.049019065 -0.012210905 -0.101105735 0.25560847 -0.11525125
-0.04281585 0.07824398 0.116867885 -0.22335406 0.01546526 -0.11452482 -0.09035181 0.2840923
-0.30221725 -0.22680733 -0.25353143 0.19895214 -0.17856331 0.19229627 -0.059806965 0.023561876
00000000: 260d 19be ad91 2bbe 0123 b93c 2599 903e
00000010: 9137 033e c91b a03d 9fbd 64bd eeab 303d
00000020: b6ec 52be 7b48 32be 9c31 613b 849b 113d
00000030: 7024 863e bfa6 48bd 88cf 2d3e 7896 b33d
00000040: 16c1 88be 500e ffbd 1230 e23d 7295 363e
00000050: a1d6 963e 3c5d 38be d4b8 41be b8aa a8bd
00000060: a487 343e b96c febd 186c a8bd 7e94 2e3e
00000070: 052b 9b3d a1f9 42be b84a 483c dbf0 9b3e
00000080: 92d1 593c 0d56 78be 63e6 e9bc e438 ab3d
00000090: 87d5 033e e9c9 0bbd e769 66bc 9ffe f03d
000000a0: f600 8c3e 20fd edbd 7c0c 81be 5fbd c2bd
000000b0: 8daf 29bd 4c81 cf3d 8ddd 903e a255 8bbe
000000c0: b431 90be 3459 ffbc f18c 4cbe 1933 013e
000000d0: fdb1 873d f43c 3fbd 620b e93b 645e 9fbd
000000e0: d734 6e3e fe62 89be d5c1 3e3e 30c4 1b3e
000000f0: be1b 44be 165b 0f3e 5036 9bbd 0409 823e
00000100: 291e c0bc d722 21bd d0d5 0cbe c095 813d
00000110: 250c 9cbe 47c2 26be 242b 513e 80c5 4b3e
00000120: dce3 9fbd ea31 a53a 8831 b13d 63d8 173e
00000130: 27f9 863d 8143 5b3d 2aa2 33be 63ba 543e
00000140: 501d 563e ebec 1e3e 59d9 873d e3c7 87be
00000150: 6eac 7d3e 1830 88bd 5650 89bd c233 473e
00000160: ca62 4e3d ee7e a1bd b882 5fbe b65c 5fbe
00000170: 6488 613d bea6 4f3e e570 663d 2778 c5bc
00000180: 41fe 5dbe f8bf e93d 9043 dabd 584f 43be
00000190: dc77 293e 6904 803e bddc 0b3d b88f 903e
000001a0: f65a 053d e818 d13d 23b6 39be 7951 cfbd
000001b0: ec77 843d e08c 42be d234 1a3e f0a0 163d
000001c0: d96a 8f3c 78bf 523c 98f5 4f3e cd59 4e3d
000001d0: 66f4 21be b8c7 33be 7e3e 6f3e 47b6 053d
000001e0: b65a 7d3e 6554 9dbe 29e6 063e b6cc 61be
000001f0: 94ef 733e 1ef9 d9bd 4985 d33d ec4a 203e
00000200: bbfc 54be 12e3 88bd 5257 08be 2c6c e13d
00000210: 7378 733d 4e78 b6bd 9c56 943b 382a b83d
00000220: 9db0 7c3e 74b2 60be 66c3 463d e7ad 7f3e
00000230: 90a9 afbd 5623 8abe 608e a83d 470d eabd
00000240: c087 46be 1bf8 8c3e 02e3 1f3e efb4 653e
00000250: 61c9 803e 0fef 8ebe e575 843d a1a1 37bd
00000260: 6c48 6f3e 840e 37be ec46 4f3e af6c 60bd
00000270: 32f2 97be 9433 003d 7736 303e 0c6f 1b3e
00000280: 48b4 723e 187b 48be 18ac c1bd 6f7c 40be
00000290: a558 d13d 23bf 99be 2929 953e 20c2 50bd
000002a0: 1adc 7c3e e374 81bd 5c52 82be 49ea cebc
000002b0: f592 88bd 2f25 96be 7b54 60be 48b9 773e
000002c0: ba44 70be 3486 ad3c b598 643e d523 6ebe
000002d0: 07fe 89be 10e1 cabd 1dba 6d3e d577 d43d
000002e0: ebae 913d 104b 5dbe d803 2ebe 7fa5 95be
000002f0: 4868 b3bc 1258 9abd 6c69 3b3e f00b 933d
00000300: 59c7 793d f866 5d3e f25f bbbd e1b5 b43d
00000310: debd 883e f3a4 8ebe 6b4e 3abe a9ab 393d
00000320: 6a56 233e 8160 06bc 9d54 7f3d a850 083e
00000330: 45b2 95be 47ca 86bc 47e2 13be 0144 b9bd
00000340: 754f 31bd ac79 91be b51e 95be 01e2 95be
00000350: 268b 3d3c 24d6 333e 1eef 893e 7f8d 6e3d
00000360: 9c47 d7bd 6a8c 7cbd 8412 f5bd be6f e0bd
00000370: 4c7d 633e 20f9 39be 9d84 b0bd ea86 60bd
00000380: b00b 24be 0074 bd3d 337b 72be 6e64 1e3e
00000390: dfd2 8cbe 8823 15be 6dda 2e3e 6e80 443c
000003a0: bede 00bd 09de 1c3d a2a7 31be 37c8 48bd
000003b0: 3f10 48bc 8610 cfbd 1ddf 823e d908 ecbd
000003c0: ac5f 2fbd 613e a03d 6e58 ef3d edb6 64be
000003d0: 0062 7d3c fd8b eabd 5f0a b9bd 8c74 913e
000003e0: 38bc 9abe 2e40 68be dfce 81be 1cba 4b3e
000003f0: 4dd9 36be 50e9 443e 26f8 74bd d604 c13c

linear2.weight f4 [3, 256]
0.039283436 0.002116173 -0.058057565 0.06231548 0.012555412 -0.002544041 0.007820478 -0.013099747
-0.041009855 0.040564988 0.053408466 0.03741633 -0.024670025 0.026448907 -0.032834508 0.03370585
0.06422057 0.05422715 -0.013919488 0.016153252 -0.038699605 -0.042544596 -0.05917414 0.046455987
-0.06641497 0.07371277 -0.034544636 -0.04619141 -0.032404497 0.027484382 -0.0016701662 -0.057770867
0.03966859 -0.0009547723 0.044122852 -0.032689393 0.047448125 -0.013662592 0.06404865 -0.0004788672
-0.05529161 0.03318277 0.018587915 -0.058716465 0.037782717 -0.0056484025 -0.0580739 0.033375837
-0.007145606 0.01962761 0.046104178 0.026845725 -0.025236629 0.03411042 0.04653523 -0.05386252
-0.016661165 0.0471243 -0.07224652 0.014143055 -0.048145246 -0.022604007 -0.034705166 -0.046065453
-0.01348615 -0.07103576 -0.004351375 -0.06894789 -0.0024391809 -0.051122494 -0.017121822 -0.07084975
0.02120596 0.002634131 0.03625702 -0.051699642 0.012862269 0.0573392 -0.03342869 0.0403792
-0.06255654 0.044242457 0.04662772 -0.032862842 -0.052610062 0.009877457 0.023045905 -0.014061171
-0.012754931 -0.00019938749 0.035228904 -0.040494062 0.026369167 -0.0211267 0.06860173 -0.057183415
0.043148674 -0.052295554 -0.048983872 -0.053803917 -0.06818442 0.024077453 0.025647694 -0.060969748
-0.03312116 0.044992916 -0.021674613 -0.022186035 0.032887224 -0.020107767 -0.015032977 0.012645198
0.04803953 0.020111777 -0.037350014 0.0061896387 0.035495937 -0.060209736 -0.032986637 -0.033148322
-0.06994882 -0.002535269 -0.0509753 -0.0017895475 -0.045325514 -0.041246526 0.012541305 -0.016843634
0.044576555 0.05249524 0.032738883 -0.056788236 -0.026503608 0.021387406 0.043398302 -0.040542334
-0.052586783 -0.024651747 -0.0046138205 0.014298915 -0.016067877 0.06884867 0.029464347 0.013803076
0.03773152 0.050393444 -0.03560769 0.029682428 -0.0214823 0.0105561195 0.039499126 0.038021427
-0.028663179 0.025634736 -0.06863123 0.004606078 -0.05063742 -0.017728977 0.027473198 -0.0036779228
0.0323845 0.04134918 -0.03222672 0.044693425 0.01946221 -0.05457242 0.05884973 0.03267421
-0.020257082 -0.020731581 0.04092077 0.036736462 -0.010524756 -0.025482072 -0.026727617 -0.06899008
0.017450884 0.021106647 0.05186846 0.02776651 -0.05342593 0.054679967 -0.016707832 -0.06680389
-0.049996797 -0.009101512 0.058412824 -0.037464485 0.05117924 0.026265807 -0.011543409 -0.016116653
-0.040367816 -0.050032016 0.072362214 0.018715918 -0.02966267 -0.061264925 -0.021061528 -0.060533002
0.026453016 0.05060505 0.036073785 -0.006308656 0.056231156 0.0059091635 0.012253672 0.074941225
0.06758673 -0.036458336 -0.029532708 0.010696255 0.06155861 -0.057907484 0.022091154 -0.05312329
0.0741819 -0.04268874 0.03961142 0.009301195 -0.054237194 -0.039506122 -0.052127805 -0.06310497
-0.017609462 0.047698744 0.016333064 -0.0293492 -0.04959234 0.027377078 0.03283854 -0.010860157
-0.033596296 0.028701225 0.028034355 -0.062275756 0.04200383 -0.038819563 -0.057626545 0.06303565
0.052040175 -0.014857072 -0.03283585 -0.06125486 -0.005754769 -0.051990435 0.022730581 -0.07029333
0.015769823 -0.022565989 -0.0073910626 -0.039366722 0.027278896 0.006699228 0.019864488 0.01112017
00000000: abe7 203d 7eaf 0a3b c5cd 6dbd 843e 7f3d
00000010: 37b5 4d3c edb9 26bb 7621 003c 52a0 56bc
00000020: f3f9 27bd 7927 263d d6c2 5a3d de41 193d
00000030: cb18 cabc 61ab d83c 7a7d 06bd 250f 0a3d
00000040: 1386 833d 4a1d 5e3d 900e 64bc d353 843c
00000050: 7a83 1ebd 3e43 2ebd 9560 72bd a248 3e3d
00000060: 9204 88bd b9f6 963d ad7e 0dbd 3433 3dbd
00000070: 94ba 04bd ed26 e13c 7ae9 daba 25a1 6cbd
00000080: 887b 223d af49 7aba 2aba 343d 50e5 05bd
00000090: f758 423d 10d9 5fbc f02b 833d 7810 fbb9
000000a0: 7579 62bd a8ea 073d af45 983c ad80 70bd
000000b0: 0dc2 1a3d 3c16 b9bb e6de 6dbd 1ab5 083d
000000c0: b025 eabb 15ca a03c bcd7 3c3d 91eb db3c
000000d0: 0cbd cebc 5eb7 0b3d ba9b 3e3d f29e 5cbd
000000e0: ff7c 88bc 6905 413d fcf5 93bd 46b8 673c
000000f0: f333 45bd 0a2c b9bc 0127 0ebd 21af 3cbd
00000100: 03f5 5cbc 327b 91bd fb95 8ebb 8d34 8dbd
00000110: aada 1fbb d265 51bd 1043 8cbc ac19 91bd
00000120: 1fb8 ad3c 62a1 2c3b 3e82 143d 01c3 53bd
00000130: 44bc 523c 82dc 6a3d 86ec 08bd a964 253d
00000140: a51d 80bd 9437 353d b5fc 3e3d 309b 06bd
00000150: a67d 57bd 0fd5 213c c4ca bc3c d360 66bc
00000160: 0ffa 50bc ac12 51b9 2f4c 103d 1add 25bd
00000170: 2704 d83c e711 adbc 107f 8c3d 2839 6abd
00000180: aabc 303d dd33 56bd 50a3 48bd 7f61 5cbd
00000190: 46a4 8bbd 143e c53c 1d1b d23c 6abb 79bd
000001a0: 0eaa 07bd 7e4a 383d f58e b1bc 7dbf b5bc
000001b0: c1b4 063d 0bb9 a4bc e04c 76bc ce2d 4f3c
000001c0: 19c5 443d 74c1 a43c 54fc 18bd 74d2 ca3b
000001d0: 3064 113d 7c9e 76bd ff1c 07bd 89c6 07bd
000001e0: 5441 8fbd c126 26bb 7acb 50bd 408f eaba
000001f0: 3fa7 39bd 1ef2 28bd 0c7a 4d3c a9fb 89bc
00000200: e895 363d 4005 573d 3519 063d c89a 68bd
00000210: 181e d9bc a434 af3c 6bc2 313d b80f 26bd
00000220: 3d65 57bd 76f2 c9bc 882f 97bb ff45 6a3c
00000230: c8a0 83bc 8800 8d3d 375f f13c 4c26 623c
00000240: 5e8c 1a3d 5b69 4e3d 5fd9 11bd 9028 f33c
00000250: a6fb afbc 93f3 2c3c d6c9 213d 5bbc 1b3d
00000260: 0bcf eabc f0ff d13c 888e 8cbd 95ee 963b
00000270: 2f69 4fbd 5c3c 91bc 790f e13c 4e09 71bb
00000280: 9ca5 043d c25d 293d 2a00 04bd 7410 373d
00000290: 366f 9f3c 5487 5fbd 6a0c 713d 64d5 053d
000002a0: 2ef2 a5bc 47d5 a9bc 8a9c 273d f978 163d
000002b0: 0770 2cbc c7bf d0bc e0f3 dabc ac4a 8dbd
000002c0: 28f5 8e3c d9e7 ac3c 0674 543d 9876 e33c
000002d0: 26d5 5abd 1af8 5f3d ddde 88bc 7ad0 88bd
000002e0: 71c9 4cbd 821e 15bc 4942 6f3d 5c74 19bd
000002f0: 53a1 513d 642b d73c 9120 3dbc 1207 84bc
00000300: b958 25bd 5fee 4cbd a432 943d 2052 993c
00000310: 21ff f2bc eef0 7abd 3a89 acbc 74f1 77bd
00000320: ffb3 d83c 3e47 4f3d 1bc2 133d d8b8 cebb
00000330: a452 663d a8a1 c13b a0c3 483c c97a 993d
00000340: e96a 8a3d 5655 15bd 94ee f1bc 583f 2f3c
00000350: e224 7c3d 6630 6dbd 82f8 b43c cf97 59bd
00000360: aeec 973d 63da 2ebd 963f 223d 0a64 183c
00000370: d227 5ebd 2cd1 21bd f783 55bd 2e3d 81bd
00000380: b841 90bc c25f 433d ebcc 853c bc6d f0bc
00000390: 5621 4bbd e545 e03c b481 063d cdee 31bc
000003a0: 459c 09bd d51e eb3c 4ea8 e53c dd14 7fbd
000003b0: 350c 2c3d 4301 1fbd d009 6cbd d618 813d
000003c0: 1428 553d 146b 73bc e27e 06bd 60e6 7abd
000003d0: 8092 bcbb ecf3 54bd 7c35 ba3c f3f5 8fbd
000003e0: b72f 813c 4fdc b8bc ba30 f2bb 003f 21bd
000003f0: fe77 df3c 3385 db3b daba a23c 6031 363c

linear2.bias f4 [3]
0.04776086 0.02668101 -0.07057778
00000000: e4a0 433d 2292 da3c 158b 90bd
